…
    },
    {
      "cell_type": "code",
      "metadata": {
        "scrolled": true,
        "colab": {
          "base_uri": "https://localhost:8080/"
        },
        "id": "L29pgWh5JQkg",
        "outputId": "477c8a8d-1d43-4210-92f2-34f83461880b"
      },
      "source": [
        "device = 'cuda:0' if torch.cuda.is_available() else 'cpu'\n",
        "model = RRN()\n",
        "model"
      ],
      "execution_count": 5,
      "outputs": [
        {
          "output_type": "execute_result",
          "data": {
            "text/plain": [
              "RRN(\n",
              "  (embed_1): Embedding(10, 16)\n",
              "  (embed_2): Embedding(9, 16)\n",
              "  (embed_3): Embedding(9, 16)\n",
              "  (embeds_to_x): MLP_for_RRN(\n",
              "    (fc1): Linear(in_features=48, out_features=96, bias=True)\n",
              "    (fc2): Linear(in_features=96, out_features=96, bias=True)\n",
              "    (fc3): Linear(in_features=96, out_features=96, bias=True)\n",
              "    (fc4): Linear(in_features=96, out_features=96, bias=True)\n",
              "  )\n",
              "  (message_mlp): MLP_for_RRN(\n",
              "    (fc1): Linear(in_features=192, out_features=96, bias=True)\n",
              "    (fc2): Linear(in_features=96, out_features=96, bias=True)\n",
              "    (fc3): Linear(in_features=96, out_features=96, bias=True)\n",
              "    (fc4): Linear(in_features=96, out_features=96, bias=True)\n",
              "  )\n",
              "  (r_to_o_mlp): Linear(in_features=96, out_features=9, bias=True)\n",
              "  (LSTM): LSTMCell(192, 96)\n",
              ")"
            ]
          },
          "metadata": {
            "tags": []
          },
          "execution_count": 5
        }
      ]
    },
    {
      "cell_type": "code",
      "metadata": {
        "id": "5rV8OnNpJQkj"
      },
      "source": [
        "optimizer=torch.optim.Adam(model.parameters(), lr=0.1, weight_decay=1e-4)\n",
…
